{"format": "graph-model", "generatedBy": "2.8.0", "convertedBy": "TensorFlow.js Converter v3.18.0", "signature": {"inputs": {"im0": {"name": "im0:0", "dtype": "DT_FLOAT", "tensorShape": {"dim": [{"size": "1"}, {"size": "384"}, {"size": "640"}, {"size": "3"}]}}}, "outputs": {"truediv": {"name": "truediv:0", "dtype": "DT_FLOAT", "tensorShape": {"dim": [{"size": "1"}, {"size": "384"}, {"size": "640"}, {"size": "1"}]}}}}, "modelTopology": {"node": [{"name": "Const_1", "op": "Const", "attr": {"value": {"tensor": {"dtype": "DT_INT32", "tensorShape": {"dim": [{"size": "4"}]}}}, "dtype": {"type": "DT_INT32"}}}, {"name": "im0", "op": "Placeholder", "attr": {"dtype": {"type": "DT_FLOAT"}, "shape": {"shape": {"dim": [{"size": "1"}, {"size": "384"}, {"size": "640"}, {"size": "3"}]}}}}, {"name": "encoder/conv1a/weights", "op": "Const", "attr": {"dtype": {"type": "DT_FLOAT"}, "value": {"tensor": {"dtype": "DT_FLOAT", "tensorShape": {"dim": [{"size": "3"}, {"size": "3"}, {"size": "3"}, {"size": "16"}]}}}}}, {"name": "decoder/L1/estimator/build_estimator/disp-4/biases", "op": "Const", "attr": {"value": {"tensor": {"dtype": "DT_FLOAT", "tensorShape": {"dim": [{"size": "64"}]}}}, "dtype": {"type": "DT_FLOAT"}}}, {"name": "encoder/conv1a/biases", "op": "Const", "attr": {"value": {"tensor": {"dtype": "DT_FLOAT", "tensorShape": {"dim": [{"size": "16"}]}}}, "dtype": {"type": "DT_FLOAT"}}}, {"name": "encoder/conv1b/weights", "op": "Const", "attr": {"value": {"tensor": {"dtype": "DT_FLOAT", "tensorShape": {"dim": [{"size": "3"}, {"size": "3"}, {"size": "16"}, {"size": "16"}]}}}, "dtype": {"type": "DT_FLOAT"}}}, {"name": "decoder/L3/estimator/build_estimator/disp-5/weights", "op": "Const", "attr": {"dtype": {"type": "DT_FLOAT"}, "value": {"tensor": {"dtype": "DT_FLOAT", "tensorShape": {"dim": [{"size": "3"}, {"size": "3"}, {"size": "64"}, {"size": "32"}]}}}}}, {"name": "encoder/conv1b/biases", "op": "Const", "attr": {"dtype": {"type": "DT_FLOAT"}, "value": {"tensor": {"dtype": "DT_FLOAT", "tensorShape": {"dim": [{"size": "16"}]}}}}}, {"name": "encoder/conv2a/weights", "op": "Const", "attr": {"dtype": {"type": "DT_FLOAT"}, "value": {"tensor": {"dtype": "DT_FLOAT", "tensorShape": {"dim": [{"size": "3"}, {"size": "3"}, {"size": "16"}, {"size": "32"}]}}}}}, {"name": "decoder/L3/estimator/build_estimator/disp-5/biases", "op": "Const", "attr": {"dtype": {"type": "DT_FLOAT"}, "value": {"tensor": {"dtype": "DT_FLOAT", "tensorShape": {"dim": [{"size": "32"}]}}}}}, {"name": "encoder/conv2a/biases", "op": "Const", "attr": {"dtype": {"type": "DT_FLOAT"}, "value": {"tensor": {"dtype": "DT_FLOAT", "tensorShape": {"dim": [{"size": "32"}]}}}}}, {"name": "encoder/conv2b/weights", "op": "Const", "attr": {"dtype": {"type": "DT_FLOAT"}, "value": {"tensor": {"dtype": "DT_FLOAT", "tensorShape": {"dim": [{"size": "3"}, {"size": "3"}, {"size": "32"}, {"size": "32"}]}}}}}, {"name": "encoder/conv2b/biases", "op": "Const", "attr": {"value": {"tensor": {"dtype": "DT_FLOAT", "tensorShape": {"dim": [{"size": "32"}]}}}, "dtype": {"type": "DT_FLOAT"}}}, {"name": "decoder/L3/estimator/build_estimator/disp-6/weights", "op": "Const", "attr": {"value": {"tensor": {"dtype": "DT_FLOAT", "tensorShape": {"dim": [{"size": "3"}, {"size": "3"}, {"size": "32"}, {"size": "8"}]}}}, "dtype": {"type": "DT_FLOAT"}}}, {"name": "encoder/conv3a/weights", "op": "Const", "attr": {"dtype": {"type": "DT_FLOAT"}, "value": {"tensor": {"dtype": "DT_FLOAT", "tensorShape": {"dim": [{"size": "3"}, {"size": "3"}, {"size": "32"}, {"size": "64"}]}}}}}, {"name": "decoder/L1/estimator/build_estimator/disp-5/weights", "op": "Const", "attr": {"value": {"tensor": {"dtype": "DT_FLOAT", "tensorShape": {"dim": [{"size": "3"}, {"size": "3"}, {"size": "64"}, {"size": "32"}]}}}, "dtype": {"type": "DT_FLOAT"}}}, {"name": "encoder/conv3a/biases", "op": "Const", "attr": {"value": {"tensor": {"dtype": "DT_FLOAT", "tensorShape": {"dim": [{"size": "64"}]}}}, "dtype": {"type": "DT_FLOAT"}}}, {"name": "decoder/L3/estimator/build_estimator/disp-6/biases", "op": "Const", "attr": {"dtype": {"type": "DT_FLOAT"}, "value": {"tensor": {"dtype": "DT_FLOAT", "tensorShape": {"dim": [{"size": "8"}]}}}}}, {"name": "encoder/conv3b/weights", "op": "Const", "attr": {"dtype": {"type": "DT_FLOAT"}, "value": {"tensor": {"dtype": "DT_FLOAT", "tensorShape": {"dim": [{"size": "3"}, {"size": "3"}, {"size": "64"}, {"size": "64"}]}}}}}, {"name": "Const", "op": "Const", "attr": {"dtype": {"type": "DT_INT32"}, "value": {"tensor": {"dtype": "DT_INT32", "tensorShape": {"dim": [{"size": "4"}]}}}}}, {"name": "encoder/conv3b/biases", "op": "Const", "attr": {"value": {"tensor": {"dtype": "DT_FLOAT", "tensorShape": {"dim": [{"size": "64"}]}}}, "dtype": {"type": "DT_FLOAT"}}}, {"name": "encoder/conv4a/weights", "op": "Const", "attr": {"value": {"tensor": {"dtype": "DT_FLOAT", "tensorShape": {"dim": [{"size": "3"}, {"size": "3"}, {"size": "64"}, {"size": "96"}]}}}, "dtype": {"type": "DT_FLOAT"}}}, {"name": "decoder/L3/upsampler/bilinear_upsampling_by_convolution/resize/size", "op": "Const", "attr": {"dtype": {"type": "DT_INT32"}, "value": {"tensor": {"dtype": "DT_INT32", "tensorShape": {"dim": [{"size": "2"}]}}}}}, {"name": "encoder/conv4a/biases", "op": "Const", "attr": {"dtype": {"type": "DT_FLOAT"}, "value": {"tensor": {"dtype": "DT_FLOAT", "tensorShape": {"dim": [{"size": "96"}]}}}}}, {"name": "encoder/conv4b/weights", "op": "Const", "attr": {"dtype": {"type": "DT_FLOAT"}, "value": {"tensor": {"dtype": "DT_FLOAT", "tensorShape": {"dim": [{"size": "3"}, {"size": "3"}, {"size": "96"}, {"size": "96"}]}}}}}, {"name": "decoder/L3/upsampler/bilinear_upsampling_by_convolution/weights", "op": "Const", "attr": {"dtype": {"type": "DT_FLOAT"}, "value": {"tensor": {"dtype": "DT_FLOAT", "tensorShape": {"dim": [{"size": "2"}, {"size": "2"}, {"size": "8"}, {"size": "8"}]}}}}}, {"name": "encoder/conv4b/biases", "op": "Const", "attr": {"value": {"tensor": {"dtype": "DT_FLOAT", "tensorShape": {"dim": [{"size": "96"}]}}}, "dtype": {"type": "DT_FLOAT"}}}, {"name": "decoder/L1/estimator/build_estimator/disp-5/biases", "op": "Const", "attr": {"dtype": {"type": "DT_FLOAT"}, "value": {"tensor": {"dtype": "DT_FLOAT", "tensorShape": {"dim": [{"size": "32"}]}}}}}, {"name": "encoder/conv5a/weights", "op": "Const", "attr": {"dtype": {"type": "DT_FLOAT"}, "value": {"tensor": {"dtype": "DT_FLOAT", "tensorShape": {"dim": [{"size": "3"}, {"size": "3"}, {"size": "96"}, {"size": "128"}]}}}}}, {"name": "decoder/L3/upsampler/bilinear_upsampling_by_convolution/biases", "op": "Const", "attr": {"value": {"tensor": {"dtype": "DT_FLOAT", "tensorShape": {"dim": [{"size": "8"}]}}}, "dtype": {"type": "DT_FLOAT"}}}, {"name": "encoder/conv5a/biases", "op": "Const", "attr": {"value": {"tensor": {"dtype": "DT_FLOAT", "tensorShape": {"dim": [{"size": "128"}]}}}, "dtype": {"type": "DT_FLOAT"}}}, {"name": "encoder/conv5b/weights", "op": "Const", "attr": {"value": {"tensor": {"dtype": "DT_FLOAT", "tensorShape": {"dim": [{"size": "3"}, {"size": "3"}, {"size": "128"}, {"size": "128"}]}}}, "dtype": {"type": "DT_FLOAT"}}}, {"name": "encoder/conv5b/biases", "op": "Const", "attr": {"dtype": {"type": "DT_FLOAT"}, "value": {"tensor": {"dtype": "DT_FLOAT", "tensorShape": {"dim": [{"size": "128"}]}}}}}, {"name": "decoder/L2/estimator/build_estimator/concat/axis", "op": "Const", "attr": {"dtype": {"type": "DT_INT32"}, "value": {"tensor": {"dtype": "DT_INT32", "tensorShape": {}}}}}, {"name": "encoder/conv6a/weights", "op": "Const", "attr": {"value": {"tensor": {"dtype": "DT_FLOAT", "tensorShape": {"dim": [{"size": "3"}, {"size": "3"}, {"size": "128"}, {"size": "192"}]}}}, "dtype": {"type": "DT_FLOAT"}}}, {"name": "encoder/conv6a/biases", "op": "Const", "attr": {"dtype": {"type": "DT_FLOAT"}, "value": {"tensor": {"dtype": "DT_FLOAT", "tensorShape": {"dim": [{"size": "192"}]}}}}}, {"name": "decoder/L2/estimator/build_estimator/disp-3/weights", "op": "Const", "attr": {"value": {"tensor": {"dtype": "DT_FLOAT", "tensorShape": {"dim": [{"size": "3"}, {"size": "3"}, {"size": "40"}, {"size": "96"}]}}}, "dtype": {"type": "DT_FLOAT"}}}, {"name": "encoder/conv6b/weights", "op": "Const", "attr": {"value": {"tensor": {"dtype": "DT_FLOAT", "tensorShape": {"dim": [{"size": "3"}, {"size": "3"}, {"size": "192"}, {"size": "192"}]}}}, "dtype": {"type": "DT_FLOAT"}}}, {"name": "encoder/conv6b/biases", "op": "Const", "attr": {"value": {"tensor": {"dtype": "DT_FLOAT", "tensorShape": {"dim": [{"size": "192"}]}}}, "dtype": {"type": "DT_FLOAT"}}}, {"name": "decoder/L2/estimator/build_estimator/disp-3/biases", "op": "Const", "attr": {"value": {"tensor": {"dtype": "DT_FLOAT", "tensorShape": {"dim": [{"size": "96"}]}}}, "dtype": {"type": "DT_FLOAT"}}}, {"name": "decoder/L6/estimator/build_estimator/disp-3/weights", "op": "Const", "attr": {"value": {"tensor": {"dtype": "DT_FLOAT", "tensorShape": {"dim": [{"size": "3"}, {"size": "3"}, {"size": "192"}, {"size": "96"}]}}}, "dtype": {"type": "DT_FLOAT"}}}, {"name": "decoder/L1/estimator/build_estimator/disp-6/weights", "op": "Const", "attr": {"value": {"tensor": {"dtype": "DT_FLOAT", "tensorShape": {"dim": [{"size": "3"}, {"size": "3"}, {"size": "32"}, {"size": "8"}]}}}, "dtype": {"type": "DT_FLOAT"}}}, {"name": "decoder/L6/estimator/build_estimator/disp-3/biases", "op": "Const", "attr": {"dtype": {"type": "DT_FLOAT"}, "value": {"tensor": {"dtype": "DT_FLOAT", "tensorShape": {"dim": [{"size": "96"}]}}}}}, {"name": "decoder/L6/estimator/build_estimator/disp-4/weights", "op": "Const", "attr": {"dtype": {"type": "DT_FLOAT"}, "value": {"tensor": {"dtype": "DT_FLOAT", "tensorShape": {"dim": [{"size": "3"}, {"size": "3"}, {"size": "96"}, {"size": "64"}]}}}}}, {"name": "decoder/L2/estimator/build_estimator/disp-4/weights", "op": "Const", "attr": {"dtype": {"type": "DT_FLOAT"}, "value": {"tensor": {"dtype": "DT_FLOAT", "tensorShape": {"dim": [{"size": "3"}, {"size": "3"}, {"size": "96"}, {"size": "64"}]}}}}}, {"name": "decoder/L6/estimator/build_estimator/disp-4/biases", "op": "Const", "attr": {"value": {"tensor": {"dtype": "DT_FLOAT", "tensorShape": {"dim": [{"size": "64"}]}}}, "dtype": {"type": "DT_FLOAT"}}}, {"name": "decoder/L6/estimator/build_estimator/disp-5/weights", "op": "Const", "attr": {"value": {"tensor": {"dtype": "DT_FLOAT", "tensorShape": {"dim": [{"size": "3"}, {"size": "3"}, {"size": "64"}, {"size": "32"}]}}}, "dtype": {"type": "DT_FLOAT"}}}, {"name": "decoder/L2/estimator/build_estimator/disp-4/biases", "op": "Const", "attr": {"dtype": {"type": "DT_FLOAT"}, "value": {"tensor": {"dtype": "DT_FLOAT", "tensorShape": {"dim": [{"size": "64"}]}}}}}, {"name": "decoder/L6/estimator/build_estimator/disp-5/biases", "op": "Const", "attr": {"dtype": {"type": "DT_FLOAT"}, "value": {"tensor": {"dtype": "DT_FLOAT", "tensorShape": {"dim": [{"size": "32"}]}}}}}, {"name": "decoder/L1/estimator/build_estimator/disp-6/biases", "op": "Const", "attr": {"value": {"tensor": {"dtype": "DT_FLOAT", "tensorShape": {"dim": [{"size": "8"}]}}}, "dtype": {"type": "DT_FLOAT"}}}, {"name": "decoder/L6/estimator/build_estimator/disp-6/weights", "op": "Const", "attr": {"dtype": {"type": "DT_FLOAT"}, "value": {"tensor": {"dtype": "DT_FLOAT", "tensorShape": {"dim": [{"size": "3"}, {"size": "3"}, {"size": "32"}, {"size": "8"}]}}}}}, {"name": "decoder/L6/estimator/build_estimator/disp-6/biases", "op": "Const", "attr": {"dtype": {"type": "DT_FLOAT"}, "value": {"tensor": {"dtype": "DT_FLOAT", "tensorShape": {"dim": [{"size": "8"}]}}}}}, {"name": "decoder/L2/estimator/build_estimator/disp-5/weights", "op": "Const", "attr": {"dtype": {"type": "DT_FLOAT"}, "value": {"tensor": {"dtype": "DT_FLOAT", "tensorShape": {"dim": [{"size": "3"}, {"size": "3"}, {"size": "64"}, {"size": "32"}]}}}}}, {"name": "decoder/L6/upsampler/bilinear_upsampling_by_convolution/resize/size", "op": "Const", "attr": {"value": {"tensor": {"dtype": "DT_INT32", "tensorShape": {"dim": [{"size": "2"}]}}}, "dtype": {"type": "DT_INT32"}}}, {"name": "decoder/L6/upsampler/bilinear_upsampling_by_convolution/weights", "op": "Const", "attr": {"value": {"tensor": {"dtype": "DT_FLOAT", "tensorShape": {"dim": [{"size": "2"}, {"size": "2"}, {"size": "8"}, {"size": "8"}]}}}, "dtype": {"type": "DT_FLOAT"}}}, {"name": "decoder/L6/upsampler/bilinear_upsampling_by_convolution/biases", "op": "Const", "attr": {"value": {"tensor": {"dtype": "DT_FLOAT", "tensorShape": {"dim": [{"size": "8"}]}}}, "dtype": {"type": "DT_FLOAT"}}}, {"name": "decoder/L2/estimator/build_estimator/disp-5/biases", "op": "Const", "attr": {"dtype": {"type": "DT_FLOAT"}, "value": {"tensor": {"dtype": "DT_FLOAT", "tensorShape": {"dim": [{"size": "32"}]}}}}}, {"name": "decoder/L5/estimator/build_estimator/concat/axis", "op": "Const", "attr": {"value": {"tensor": {"dtype": "DT_INT32", "tensorShape": {}}}, "dtype": {"type": "DT_INT32"}}}, {"name": "decoder/L5/estimator/build_estimator/disp-3/weights", "op": "Const", "attr": {"dtype": {"type": "DT_FLOAT"}, "value": {"tensor": {"dtype": "DT_FLOAT", "tensorShape": {"dim": [{"size": "3"}, {"size": "3"}, {"size": "136"}, {"size": "96"}]}}}}}, {"name": "decoder/L5/estimator/build_estimator/disp-3/biases", "op": "Const", "attr": {"value": {"tensor": {"dtype": "DT_FLOAT", "tensorShape": {"dim": [{"size": "96"}]}}}, "dtype": {"type": "DT_FLOAT"}}}, {"name": "decoder/L5/estimator/build_estimator/disp-4/weights", "op": "Const", "attr": {"dtype": {"type": "DT_FLOAT"}, "value": {"tensor": {"dtype": "DT_FLOAT", "tensorShape": {"dim": [{"size": "3"}, {"size": "3"}, {"size": "96"}, {"size": "64"}]}}}}}, {"name": "decoder/L2/estimator/build_estimator/disp-6/weights", "op": "Const", "attr": {"dtype": {"type": "DT_FLOAT"}, "value": {"tensor": {"dtype": "DT_FLOAT", "tensorShape": {"dim": [{"size": "3"}, {"size": "3"}, {"size": "32"}, {"size": "8"}]}}}}}, {"name": "decoder/L5/estimator/build_estimator/disp-4/biases", "op": "Const", "attr": {"value": {"tensor": {"dtype": "DT_FLOAT", "tensorShape": {"dim": [{"size": "64"}]}}}, "dtype": {"type": "DT_FLOAT"}}}, {"name": "decoder/L1/estimator/get_disp/weights", "op": "Const", "attr": {"value": {"tensor": {"dtype": "DT_FLOAT", "tensorShape": {"dim": [{"size": "3"}, {"size": "3"}, {"size": "8"}, {"size": "1"}]}}}, "dtype": {"type": "DT_FLOAT"}}}, {"name": "decoder/L5/estimator/build_estimator/disp-5/weights", "op": "Const", "attr": {"dtype": {"type": "DT_FLOAT"}, "value": {"tensor": {"dtype": "DT_FLOAT", "tensorShape": {"dim": [{"size": "3"}, {"size": "3"}, {"size": "64"}, {"size": "32"}]}}}}}, {"name": "decoder/L2/estimator/build_estimator/disp-6/biases", "op": "Const", "attr": {"value": {"tensor": {"dtype": "DT_FLOAT", "tensorShape": {"dim": [{"size": "8"}]}}}, "dtype": {"type": "DT_FLOAT"}}}, {"name": "decoder/L5/estimator/build_estimator/disp-5/biases", "op": "Const", "attr": {"value": {"tensor": {"dtype": "DT_FLOAT", "tensorShape": {"dim": [{"size": "32"}]}}}, "dtype": {"type": "DT_FLOAT"}}}, {"name": "decoder/L5/estimator/build_estimator/disp-6/weights", "op": "Const", "attr": {"dtype": {"type": "DT_FLOAT"}, "value": {"tensor": {"dtype": "DT_FLOAT", "tensorShape": {"dim": [{"size": "3"}, {"size": "3"}, {"size": "32"}, {"size": "8"}]}}}}}, {"name": "decoder/L5/estimator/build_estimator/disp-6/biases", "op": "Const", "attr": {"value": {"tensor": {"dtype": "DT_FLOAT", "tensorShape": {"dim": [{"size": "8"}]}}}, "dtype": {"type": "DT_FLOAT"}}}, {"name": "decoder/L2/upsampler/bilinear_upsampling_by_convolution/resize/size", "op": "Const", "attr": {"value": {"tensor": {"dtype": "DT_INT32", "tensorShape": {"dim": [{"size": "2"}]}}}, "dtype": {"type": "DT_INT32"}}}, {"name": "decoder/L5/upsampler/bilinear_upsampling_by_convolution/resize/size", "op": "Const", "attr": {"dtype": {"type": "DT_INT32"}, "value": {"tensor": {"dtype": "DT_INT32", "tensorShape": {"dim": [{"size": "2"}]}}}}}, {"name": "decoder/L5/upsampler/bilinear_upsampling_by_convolution/weights", "op": "Const", "attr": {"dtype": {"type": "DT_FLOAT"}, "value": {"tensor": {"dtype": "DT_FLOAT", "tensorShape": {"dim": [{"size": "2"}, {"size": "2"}, {"size": "8"}, {"size": "8"}]}}}}}, {"name": "decoder/L5/upsampler/bilinear_upsampling_by_convolution/biases", "op": "Const", "attr": {"value": {"tensor": {"dtype": "DT_FLOAT", "tensorShape": {"dim": [{"size": "8"}]}}}, "dtype": {"type": "DT_FLOAT"}}}, {"name": "decoder/L2/upsampler/bilinear_upsampling_by_convolution/weights", "op": "Const", "attr": {"value": {"tensor": {"dtype": "DT_FLOAT", "tensorShape": {"dim": [{"size": "2"}, {"size": "2"}, {"size": "8"}, {"size": "8"}]}}}, "dtype": {"type": "DT_FLOAT"}}}, {"name": "decoder/L4/estimator/build_estimator/concat/axis", "op": "Const", "attr": {"value": {"tensor": {"dtype": "DT_INT32", "tensorShape": {}}}, "dtype": {"type": "DT_INT32"}}}, {"name": "decoder/L4/estimator/build_estimator/disp-3/weights", "op": "Const", "attr": {"dtype": {"type": "DT_FLOAT"}, "value": {"tensor": {"dtype": "DT_FLOAT", "tensorShape": {"dim": [{"size": "3"}, {"size": "3"}, {"size": "104"}, {"size": "96"}]}}}}}, {"name": "decoder/L1/estimator/get_disp/biases", "op": "Const", "attr": {"value": {"tensor": {"dtype": "DT_FLOAT", "tensorShape": {"dim": [{"size": "1"}]}}}, "dtype": {"type": "DT_FLOAT"}}}, {"name": "decoder/L4/estimator/build_estimator/disp-3/biases", "op": "Const", "attr": {"dtype": {"type": "DT_FLOAT"}, "value": {"tensor": {"dtype": "DT_FLOAT", "tensorShape": {"dim": [{"size": "96"}]}}}}}, {"name": "decoder/L2/upsampler/bilinear_upsampling_by_convolution/biases", "op": "Const", "attr": {"dtype": {"type": "DT_FLOAT"}, "value": {"tensor": {"dtype": "DT_FLOAT", "tensorShape": {"dim": [{"size": "8"}]}}}}}, {"name": "decoder/L4/estimator/build_estimator/disp-4/weights", "op": "Const", "attr": {"value": {"tensor": {"dtype": "DT_FLOAT", "tensorShape": {"dim": [{"size": "3"}, {"size": "3"}, {"size": "96"}, {"size": "64"}]}}}, "dtype": {"type": "DT_FLOAT"}}}, {"name": "decoder/L4/estimator/build_estimator/disp-4/biases", "op": "Const", "attr": {"value": {"tensor": {"dtype": "DT_FLOAT", "tensorShape": {"dim": [{"size": "64"}]}}}, "dtype": {"type": "DT_FLOAT"}}}, {"name": "decoder/L4/estimator/build_estimator/disp-5/weights", "op": "Const", "attr": {"dtype": {"type": "DT_FLOAT"}, "value": {"tensor": {"dtype": "DT_FLOAT", "tensorShape": {"dim": [{"size": "3"}, {"size": "3"}, {"size": "64"}, {"size": "32"}]}}}}}, {"name": "decoder/L1/estimator/build_estimator/concat/axis", "op": "Const", "attr": {"dtype": {"type": "DT_INT32"}, "value": {"tensor": {"dtype": "DT_INT32", "tensorShape": {}}}}}, {"name": "decoder/L4/estimator/build_estimator/disp-5/biases", "op": "Const", "attr": {"dtype": {"type": "DT_FLOAT"}, "value": {"tensor": {"dtype": "DT_FLOAT", "tensorShape": {"dim": [{"size": "32"}]}}}}}, {"name": "decoder/L4/estimator/build_estimator/disp-6/weights", "op": "Const", "attr": {"value": {"tensor": {"dtype": "DT_FLOAT", "tensorShape": {"dim": [{"size": "3"}, {"size": "3"}, {"size": "32"}, {"size": "8"}]}}}, "dtype": {"type": "DT_FLOAT"}}}, {"name": "decoder/L1/estimator/build_estimator/disp-3/weights", "op": "Const", "attr": {"value": {"tensor": {"dtype": "DT_FLOAT", "tensorShape": {"dim": [{"size": "3"}, {"size": "3"}, {"size": "24"}, {"size": "96"}]}}}, "dtype": {"type": "DT_FLOAT"}}}, {"name": "decoder/L4/estimator/build_estimator/disp-6/biases", "op": "Const", "attr": {"dtype": {"type": "DT_FLOAT"}, "value": {"tensor": {"dtype": "DT_FLOAT", "tensorShape": {"dim": [{"size": "8"}]}}}}}, {"name": "decoder/half/resize/size", "op": "Const", "attr": {"dtype": {"type": "DT_INT32"}, "value": {"tensor": {"dtype": "DT_INT32", "tensorShape": {"dim": [{"size": "2"}]}}}}}, {"name": "decoder/L4/upsampler/bilinear_upsampling_by_convolution/resize/size", "op": "Const", "attr": {"dtype": {"type": "DT_INT32"}, "value": {"tensor": {"dtype": "DT_INT32", "tensorShape": {"dim": [{"size": "2"}]}}}}}, {"name": "decoder/L4/upsampler/bilinear_upsampling_by_convolution/weights", "op": "Const", "attr": {"dtype": {"type": "DT_FLOAT"}, "value": {"tensor": {"dtype": "DT_FLOAT", "tensorShape": {"dim": [{"size": "2"}, {"size": "2"}, {"size": "8"}, {"size": "8"}]}}}}}, {"name": "decoder/L1/estimator/build_estimator/disp-3/biases", "op": "Const", "attr": {"dtype": {"type": "DT_FLOAT"}, "value": {"tensor": {"dtype": "DT_FLOAT", "tensorShape": {"dim": [{"size": "96"}]}}}}}, {"name": "decoder/L4/upsampler/bilinear_upsampling_by_convolution/biases", "op": "Const", "attr": {"dtype": {"type": "DT_FLOAT"}, "value": {"tensor": {"dtype": "DT_FLOAT", "tensorShape": {"dim": [{"size": "8"}]}}}}}, {"name": "decoder/L3/estimator/build_estimator/concat/axis", "op": "Const", "attr": {"value": {"tensor": {"dtype": "DT_INT32", "tensorShape": {}}}, "dtype": {"type": "DT_INT32"}}}, {"name": "decoder/L3/estimator/build_estimator/disp-3/weights", "op": "Const", "attr": {"dtype": {"type": "DT_FLOAT"}, "value": {"tensor": {"dtype": "DT_FLOAT", "tensorShape": {"dim": [{"size": "3"}, {"size": "3"}, {"size": "72"}, {"size": "96"}]}}}}}, {"name": "decoder/L3/estimator/build_estimator/disp-3/biases", "op": "Const", "attr": {"value": {"tensor": {"dtype": "DT_FLOAT", "tensorShape": {"dim": [{"size": "96"}]}}}, "dtype": {"type": "DT_FLOAT"}}}, {"name": "decoder/L1/estimator/build_estimator/disp-4/weights", "op": "Const", "attr": {"value": {"tensor": {"dtype": "DT_FLOAT", "tensorShape": {"dim": [{"size": "3"}, {"size": "3"}, {"size": "96"}, {"size": "64"}]}}}, "dtype": {"type": "DT_FLOAT"}}}, {"name": "decoder/L3/estimator/build_estimator/disp-4/weights", "op": "Const", "attr": {"dtype": {"type": "DT_FLOAT"}, "value": {"tensor": {"dtype": "DT_FLOAT", "tensorShape": {"dim": [{"size": "3"}, {"size": "3"}, {"size": "96"}, {"size": "64"}]}}}}}, {"name": "decoder/L3/estimator/build_estimator/disp-4/biases", "op": "Const", "attr": {"dtype": {"type": "DT_FLOAT"}, "value": {"tensor": {"dtype": "DT_FLOAT", "tensorShape": {"dim": [{"size": "64"}]}}}}}, {"name": "encoder/conv1a/LeakyRelu", "op": "_FusedConv2D", "input": ["im0", "encoder/conv1a/weights", "encoder/conv1a/biases"], "device": "/device:CPU:0", "attr": {"fused_ops": {"list": {"s": ["Qmlhc0FkZA==", "TGVha3lSZWx1"]}}, "data_format": {"s": "TkhXQw=="}, "explicit_paddings": {"list": {}}, "leakyrelu_alpha": {"f": 0.2}, "num_args": {"i": "1"}, "padding": {"s": "U0FNRQ=="}, "T": {"type": "DT_FLOAT"}, "use_cudnn_on_gpu": {"b": true}, "epsilon": {"f": 0.0}, "dilations": {"list": {"i": ["1", "1", "1", "1"]}}, "strides": {"list": {"i": ["1", "2", "2", "1"]}}}}, {"name": "encoder/conv1b/LeakyRelu", "op": "_FusedConv2D", "input": ["encoder/conv1a/LeakyRelu", "encoder/conv1b/weights", "encoder/conv1b/biases"], "device": "/device:CPU:0", "attr": {"fused_ops": {"list": {"s": ["Qmlhc0FkZA==", "TGVha3lSZWx1"]}}, "padding": {"s": "U0FNRQ=="}, "epsilon": {"f": 0.0}, "T": {"type": "DT_FLOAT"}, "explicit_paddings": {"list": {}}, "dilations": {"list": {"i": ["1", "1", "1", "1"]}}, "leakyrelu_alpha": {"f": 0.2}, "num_args": {"i": "1"}, "data_format": {"s": "TkhXQw=="}, "strides": {"list": {"i": ["1", "1", "1", "1"]}}, "use_cudnn_on_gpu": {"b": true}}}, {"name": "encoder/conv2a/LeakyRelu", "op": "_FusedConv2D", "input": ["encoder/conv1b/LeakyRelu", "encoder/conv2a/weights", "encoder/conv2a/biases"], "device": "/device:CPU:0", "attr": {"data_format": {"s": "TkhXQw=="}, "fused_ops": {"list": {"s": ["Qmlhc0FkZA==", "TGVha3lSZWx1"]}}, "epsilon": {"f": 0.0}, "use_cudnn_on_gpu": {"b": true}, "leakyrelu_alpha": {"f": 0.2}, "T": {"type": "DT_FLOAT"}, "explicit_paddings": {"list": {}}, "padding": {"s": "U0FNRQ=="}, "dilations": {"list": {"i": ["1", "1", "1", "1"]}}, "num_args": {"i": "1"}, "strides": {"list": {"i": ["1", "2", "2", "1"]}}}}, {"name": "encoder/conv2b/LeakyRelu", "op": "_FusedConv2D", "input": ["encoder/conv2a/LeakyRelu", "encoder/conv2b/weights", "encoder/conv2b/biases"], "device": "/device:CPU:0", "attr": {"fused_ops": {"list": {"s": ["Qmlhc0FkZA==", "TGVha3lSZWx1"]}}, "padding": {"s": "U0FNRQ=="}, "dilations": {"list": {"i": ["1", "1", "1", "1"]}}, "strides": {"list": {"i": ["1", "1", "1", "1"]}}, "T": {"type": "DT_FLOAT"}, "explicit_paddings": {"list": {}}, "epsilon": {"f": 0.0}, "leakyrelu_alpha": {"f": 0.2}, "num_args": {"i": "1"}, "data_format": {"s": "TkhXQw=="}, "use_cudnn_on_gpu": {"b": true}}}, {"name": "encoder/conv3a/LeakyRelu", "op": "_FusedConv2D", "input": ["encoder/conv2b/LeakyRelu", "encoder/conv3a/weights", "encoder/conv3a/biases"], "device": "/device:CPU:0", "attr": {"num_args": {"i": "1"}, "fused_ops": {"list": {"s": ["Qmlhc0FkZA==", "TGVha3lSZWx1"]}}, "padding": {"s": "U0FNRQ=="}, "epsilon": {"f": 0.0}, "use_cudnn_on_gpu": {"b": true}, "strides": {"list": {"i": ["1", "2", "2", "1"]}}, "dilations": {"list": {"i": ["1", "1", "1", "1"]}}, "explicit_paddings": {"list": {}}, "T": {"type": "DT_FLOAT"}, "leakyrelu_alpha": {"f": 0.2}, "data_format": {"s": "TkhXQw=="}}}, {"name": "encoder/conv3b/LeakyRelu", "op": "_FusedConv2D", "input": ["encoder/conv3a/LeakyRelu", "encoder/conv3b/weights", "encoder/conv3b/biases"], "device": "/device:CPU:0", "attr": {"use_cudnn_on_gpu": {"b": true}, "fused_ops": {"list": {"s": ["Qmlhc0FkZA==", "TGVha3lSZWx1"]}}, "strides": {"list": {"i": ["1", "1", "1", "1"]}}, "padding": {"s": "U0FNRQ=="}, "explicit_paddings": {"list": {}}, "leakyrelu_alpha": {"f": 0.2}, "dilations": {"list": {"i": ["1", "1", "1", "1"]}}, "num_args": {"i": "1"}, "data_format": {"s": "TkhXQw=="}, "epsilon": {"f": 0.0}, "T": {"type": "DT_FLOAT"}}}, {"name": "encoder/conv4a/LeakyRelu", "op": "_FusedConv2D", "input": ["encoder/conv3b/LeakyRelu", "encoder/conv4a/weights", "encoder/conv4a/biases"], "device": "/device:CPU:0", "attr": {"leakyrelu_alpha": {"f": 0.2}, "padding": {"s": "U0FNRQ=="}, "fused_ops": {"list": {"s": ["Qmlhc0FkZA==", "TGVha3lSZWx1"]}}, "data_format": {"s": "TkhXQw=="}, "num_args": {"i": "1"}, "use_cudnn_on_gpu": {"b": true}, "T": {"type": "DT_FLOAT"}, "epsilon": {"f": 0.0}, "dilations": {"list": {"i": ["1", "1", "1", "1"]}}, "strides": {"list": {"i": ["1", "2", "2", "1"]}}, "explicit_paddings": {"list": {}}}}, {"name": "encoder/conv4b/LeakyRelu", "op": "_FusedConv2D", "input": ["encoder/conv4a/LeakyRelu", "encoder/conv4b/weights", "encoder/conv4b/biases"], "device": "/device:CPU:0", "attr": {"use_cudnn_on_gpu": {"b": true}, "fused_ops": {"list": {"s": ["Qmlhc0FkZA==", "TGVha3lSZWx1"]}}, "dilations": {"list": {"i": ["1", "1", "1", "1"]}}, "epsilon": {"f": 0.0}, "explicit_paddings": {"list": {}}, "leakyrelu_alpha": {"f": 0.2}, "num_args": {"i": "1"}, "data_format": {"s": "TkhXQw=="}, "padding": {"s": "U0FNRQ=="}, "T": {"type": "DT_FLOAT"}, "strides": {"list": {"i": ["1", "1", "1", "1"]}}}}, {"name": "encoder/conv5a/LeakyRelu", "op": "_FusedConv2D", "input": ["encoder/conv4b/LeakyRelu", "encoder/conv5a/weights", "encoder/conv5a/biases"], "device": "/device:CPU:0", "attr": {"padding": {"s": "U0FNRQ=="}, "use_cudnn_on_gpu": {"b": true}, "strides": {"list": {"i": ["1", "2", "2", "1"]}}, "epsilon": {"f": 0.0}, "dilations": {"list": {"i": ["1", "1", "1", "1"]}}, "num_args": {"i": "1"}, "explicit_paddings": {"list": {}}, "leakyrelu_alpha": {"f": 0.2}, "data_format": {"s": "TkhXQw=="}, "fused_ops": {"list": {"s": ["Qmlhc0FkZA==", "TGVha3lSZWx1"]}}, "T": {"type": "DT_FLOAT"}}}, {"name": "encoder/conv5b/LeakyRelu", "op": "_FusedConv2D", "input": ["encoder/conv5a/LeakyRelu", "encoder/conv5b/weights", "encoder/conv5b/biases"], "device": "/device:CPU:0", "attr": {"dilations": {"list": {"i": ["1", "1", "1", "1"]}}, "explicit_paddings": {"list": {}}, "leakyrelu_alpha": {"f": 0.2}, "padding": {"s": "U0FNRQ=="}, "T": {"type": "DT_FLOAT"}, "data_format": {"s": "TkhXQw=="}, "num_args": {"i": "1"}, "epsilon": {"f": 0.0}, "strides": {"list": {"i": ["1", "1", "1", "1"]}}, "fused_ops": {"list": {"s": ["Qmlhc0FkZA==", "TGVha3lSZWx1"]}}, "use_cudnn_on_gpu": {"b": true}}}, {"name": "encoder/conv6a/LeakyRelu", "op": "_FusedConv2D", "input": ["encoder/conv5b/LeakyRelu", "encoder/conv6a/weights", "encoder/conv6a/biases"], "device": "/device:CPU:0", "attr": {"padding": {"s": "U0FNRQ=="}, "strides": {"list": {"i": ["1", "2", "2", "1"]}}, "fused_ops": {"list": {"s": ["Qmlhc0FkZA==", "TGVha3lSZWx1"]}}, "explicit_paddings": {"list": {}}, "leakyrelu_alpha": {"f": 0.2}, "epsilon": {"f": 0.0}, "dilations": {"list": {"i": ["1", "1", "1", "1"]}}, "T": {"type": "DT_FLOAT"}, "num_args": {"i": "1"}, "data_format": {"s": "TkhXQw=="}, "use_cudnn_on_gpu": {"b": true}}}, {"name": "encoder/conv6b/LeakyRelu", "op": "_FusedConv2D", "input": ["encoder/conv6a/LeakyRelu", "encoder/conv6b/weights", "encoder/conv6b/biases"], "device": "/device:CPU:0", "attr": {"T": {"type": "DT_FLOAT"}, "padding": {"s": "U0FNRQ=="}, "use_cudnn_on_gpu": {"b": true}, "dilations": {"list": {"i": ["1", "1", "1", "1"]}}, "explicit_paddings": {"list": {}}, "leakyrelu_alpha": {"f": 0.2}, "data_format": {"s": "TkhXQw=="}, "fused_ops": {"list": {"s": ["Qmlhc0FkZA==", "TGVha3lSZWx1"]}}, "num_args": {"i": "1"}, "epsilon": {"f": 0.0}, "strides": {"list": {"i": ["1", "1", "1", "1"]}}}}, {"name": "decoder/L6/estimator/build_estimator/disp-3/LeakyRelu", "op": "_FusedConv2D", "input": ["encoder/conv6b/LeakyRelu", "decoder/L6/estimator/build_estimator/disp-3/weights", "decoder/L6/estimator/build_estimator/disp-3/biases"], "device": "/device:CPU:0", "attr": {"explicit_paddings": {"list": {}}, "leakyrelu_alpha": {"f": 0.2}, "data_format": {"s": "TkhXQw=="}, "padding": {"s": "U0FNRQ=="}, "num_args": {"i": "1"}, "T": {"type": "DT_FLOAT"}, "strides": {"list": {"i": ["1", "1", "1", "1"]}}, "fused_ops": {"list": {"s": ["Qmlhc0FkZA==", "TGVha3lSZWx1"]}}, "use_cudnn_on_gpu": {"b": true}, "dilations": {"list": {"i": ["1", "1", "1", "1"]}}, "epsilon": {"f": 0.0}}}, {"name": "decoder/L6/estimator/build_estimator/disp-4/LeakyRelu", "op": "_FusedConv2D", "input": ["decoder/L6/estimator/build_estimator/disp-3/LeakyRelu", "decoder/L6/estimator/build_estimator/disp-4/weights", "decoder/L6/estimator/build_estimator/disp-4/biases"], "device": "/device:CPU:0", "attr": {"strides": {"list": {"i": ["1", "1", "1", "1"]}}, "data_format": {"s": "TkhXQw=="}, "epsilon": {"f": 0.0}, "use_cudnn_on_gpu": {"b": true}, "explicit_paddings": {"list": {}}, "leakyrelu_alpha": {"f": 0.2}, "fused_ops": {"list": {"s": ["Qmlhc0FkZA==", "TGVha3lSZWx1"]}}, "dilations": {"list": {"i": ["1", "1", "1", "1"]}}, "T": {"type": "DT_FLOAT"}, "padding": {"s": "U0FNRQ=="}, "num_args": {"i": "1"}}}, {"name": "decoder/L6/estimator/build_estimator/disp-5/LeakyRelu", "op": "_FusedConv2D", "input": ["decoder/L6/estimator/build_estimator/disp-4/LeakyRelu", "decoder/L6/estimator/build_estimator/disp-5/weights", "decoder/L6/estimator/build_estimator/disp-5/biases"], "device": "/device:CPU:0", "attr": {"epsilon": {"f": 0.0}, "use_cudnn_on_gpu": {"b": true}, "fused_ops": {"list": {"s": ["Qmlhc0FkZA==", "TGVha3lSZWx1"]}}, "leakyrelu_alpha": {"f": 0.2}, "explicit_paddings": {"list": {}}, "dilations": {"list": {"i": ["1", "1", "1", "1"]}}, "num_args": {"i": "1"}, "strides": {"list": {"i": ["1", "1", "1", "1"]}}, "data_format": {"s": "TkhXQw=="}, "T": {"type": "DT_FLOAT"}, "padding": {"s": "U0FNRQ=="}}}, {"name": "decoder/L6/estimator/build_estimator/disp-6/LeakyRelu", "op": "_FusedConv2D", "input": ["decoder/L6/estimator/build_estimator/disp-5/LeakyRelu", "decoder/L6/estimator/build_estimator/disp-6/weights", "decoder/L6/estimator/build_estimator/disp-6/biases"], "device": "/device:CPU:0", "attr": {"epsilon": {"f": 0.0}, "use_cudnn_on_gpu": {"b": true}, "dilations": {"list": {"i": ["1", "1", "1", "1"]}}, "strides": {"list": {"i": ["1", "1", "1", "1"]}}, "data_format": {"s": "TkhXQw=="}, "leakyrelu_alpha": {"f": 0.2}, "fused_ops": {"list": {"s": ["Qmlhc0FkZA==", "TGVha3lSZWx1"]}}, "num_args": {"i": "1"}, "explicit_paddings": {"list": {}}, "padding": {"s": "U0FNRQ=="}, "T": {"type": "DT_FLOAT"}}}, {"name": "decoder/L6/upsampler/bilinear_upsampling_by_convolution/resize/ResizeBilinear", "op": "ResizeBilinear", "input": ["decoder/L6/estimator/build_estimator/disp-6/LeakyRelu", "decoder/L6/upsampler/bilinear_upsampling_by_convolution/resize/size"], "attr": {"T": {"type": "DT_FLOAT"}, "half_pixel_centers": {"b": false}, "align_corners": {"b": false}}}, {"name": "decoder/L6/upsampler/bilinear_upsampling_by_convolution/LeakyRelu", "op": "_FusedConv2D", "input": ["decoder/L6/upsampler/bilinear_upsampling_by_convolution/resize/ResizeBilinear", "decoder/L6/upsampler/bilinear_upsampling_by_convolution/weights", "decoder/L6/upsampler/bilinear_upsampling_by_convolution/biases"], "device": "/device:CPU:0", "attr": {"T": {"type": "DT_FLOAT"}, "epsilon": {"f": 0.0}, "use_cudnn_on_gpu": {"b": true}, "dilations": {"list": {"i": ["1", "1", "1", "1"]}}, "strides": {"list": {"i": ["1", "1", "1", "1"]}}, "explicit_paddings": {"list": {}}, "leakyrelu_alpha": {"f": 0.2}, "data_format": {"s": "TkhXQw=="}, "padding": {"s": "U0FNRQ=="}, "fused_ops": {"list": {"s": ["Qmlhc0FkZA==", "TGVha3lSZWx1"]}}, "num_args": {"i": "1"}}}, {"name": "decoder/L5/estimator/build_estimator/concat", "op": "ConcatV2", "input": ["encoder/conv5b/LeakyRelu", "decoder/L6/upsampler/bilinear_upsampling_by_convolution/LeakyRelu", "decoder/L5/estimator/build_estimator/concat/axis"], "attr": {"N": {"i": "2"}, "T": {"type": "DT_FLOAT"}, "Tidx": {"type": "DT_INT32"}}}, {"name": "decoder/L5/estimator/build_estimator/disp-3/LeakyRelu", "op": "_FusedConv2D", "input": ["decoder/L5/estimator/build_estimator/concat", "decoder/L5/estimator/build_estimator/disp-3/weights", "decoder/L5/estimator/build_estimator/disp-3/biases"], "device": "/device:CPU:0", "attr": {"num_args": {"i": "1"}, "data_format": {"s": "TkhXQw=="}, "use_cudnn_on_gpu": {"b": true}, "padding": {"s": "U0FNRQ=="}, "strides": {"list": {"i": ["1", "1", "1", "1"]}}, "leakyrelu_alpha": {"f": 0.2}, "fused_ops": {"list": {"s": ["Qmlhc0FkZA==", "TGVha3lSZWx1"]}}, "epsilon": {"f": 0.0}, "explicit_paddings": {"list": {}}, "dilations": {"list": {"i": ["1", "1", "1", "1"]}}, "T": {"type": "DT_FLOAT"}}}, {"name": "decoder/L5/estimator/build_estimator/disp-4/LeakyRelu", "op": "_FusedConv2D", "input": ["decoder/L5/estimator/build_estimator/disp-3/LeakyRelu", "decoder/L5/estimator/build_estimator/disp-4/weights", "decoder/L5/estimator/build_estimator/disp-4/biases"], "device": "/device:CPU:0", "attr": {"T": {"type": "DT_FLOAT"}, "epsilon": {"f": 0.0}, "use_cudnn_on_gpu": {"b": true}, "strides": {"list": {"i": ["1", "1", "1", "1"]}}, "dilations": {"list": {"i": ["1", "1", "1", "1"]}}, "explicit_paddings": {"list": {}}, "leakyrelu_alpha": {"f": 0.2}, "data_format": {"s": "TkhXQw=="}, "fused_ops": {"list": {"s": ["Qmlhc0FkZA==", "TGVha3lSZWx1"]}}, "num_args": {"i": "1"}, "padding": {"s": "U0FNRQ=="}}}, {"name": "decoder/L5/estimator/build_estimator/disp-5/LeakyRelu", "op": "_FusedConv2D", "input": ["decoder/L5/estimator/build_estimator/disp-4/LeakyRelu", "decoder/L5/estimator/build_estimator/disp-5/weights", "decoder/L5/estimator/build_estimator/disp-5/biases"], "device": "/device:CPU:0", "attr": {"leakyrelu_alpha": {"f": 0.2}, "num_args": {"i": "1"}, "data_format": {"s": "TkhXQw=="}, "use_cudnn_on_gpu": {"b": true}, "T": {"type": "DT_FLOAT"}, "epsilon": {"f": 0.0}, "fused_ops": {"list": {"s": ["Qmlhc0FkZA==", "TGVha3lSZWx1"]}}, "padding": {"s": "U0FNRQ=="}, "dilations": {"list": {"i": ["1", "1", "1", "1"]}}, "strides": {"list": {"i": ["1", "1", "1", "1"]}}, "explicit_paddings": {"list": {}}}}, {"name": "decoder/L5/estimator/build_estimator/disp-6/LeakyRelu", "op": "_FusedConv2D", "input": ["decoder/L5/estimator/build_estimator/disp-5/LeakyRelu", "decoder/L5/estimator/build_estimator/disp-6/weights", "decoder/L5/estimator/build_estimator/disp-6/biases"], "device": "/device:CPU:0", "attr": {"use_cudnn_on_gpu": {"b": true}, "T": {"type": "DT_FLOAT"}, "explicit_paddings": {"list": {}}, "padding": {"s": "U0FNRQ=="}, "leakyrelu_alpha": {"f": 0.2}, "dilations": {"list": {"i": ["1", "1", "1", "1"]}}, "strides": {"list": {"i": ["1", "1", "1", "1"]}}, "num_args": {"i": "1"}, "fused_ops": {"list": {"s": ["Qmlhc0FkZA==", "TGVha3lSZWx1"]}}, "data_format": {"s": "TkhXQw=="}, "epsilon": {"f": 0.0}}}, {"name": "decoder/L5/upsampler/bilinear_upsampling_by_convolution/resize/ResizeBilinear", "op": "ResizeBilinear", "input": ["decoder/L5/estimator/build_estimator/disp-6/LeakyRelu", "decoder/L5/upsampler/bilinear_upsampling_by_convolution/resize/size"], "attr": {"align_corners": {"b": false}, "T": {"type": "DT_FLOAT"}, "half_pixel_centers": {"b": false}}}, {"name": "decoder/L5/upsampler/bilinear_upsampling_by_convolution/LeakyRelu", "op": "_FusedConv2D", "input": ["decoder/L5/upsampler/bilinear_upsampling_by_convolution/resize/ResizeBilinear", "decoder/L5/upsampler/bilinear_upsampling_by_convolution/weights", "decoder/L5/upsampler/bilinear_upsampling_by_convolution/biases"], "device": "/device:CPU:0", "attr": {"num_args": {"i": "1"}, "strides": {"list": {"i": ["1", "1", "1", "1"]}}, "data_format": {"s": "TkhXQw=="}, "fused_ops": {"list": {"s": ["Qmlhc0FkZA==", "TGVha3lSZWx1"]}}, "epsilon": {"f": 0.0}, "use_cudnn_on_gpu": {"b": true}, "T": {"type": "DT_FLOAT"}, "explicit_paddings": {"list": {}}, "leakyrelu_alpha": {"f": 0.2}, "padding": {"s": "U0FNRQ=="}, "dilations": {"list": {"i": ["1", "1", "1", "1"]}}}}, {"name": "decoder/L4/estimator/build_estimator/concat", "op": "ConcatV2", "input": ["encoder/conv4b/LeakyRelu", "decoder/L5/upsampler/bilinear_upsampling_by_convolution/LeakyRelu", "decoder/L4/estimator/build_estimator/concat/axis"], "attr": {"N": {"i": "2"}, "T": {"type": "DT_FLOAT"}, "Tidx": {"type": "DT_INT32"}}}, {"name": "decoder/L4/estimator/build_estimator/disp-3/LeakyRelu", "op": "_FusedConv2D", "input": ["decoder/L4/estimator/build_estimator/concat", "decoder/L4/estimator/build_estimator/disp-3/weights", "decoder/L4/estimator/build_estimator/disp-3/biases"], "device": "/device:CPU:0", "attr": {"data_format": {"s": "TkhXQw=="}, "num_args": {"i": "1"}, "strides": {"list": {"i": ["1", "1", "1", "1"]}}, "epsilon": {"f": 0.0}, "fused_ops": {"list": {"s": ["Qmlhc0FkZA==", "TGVha3lSZWx1"]}}, "use_cudnn_on_gpu": {"b": true}, "dilations": {"list": {"i": ["1", "1", "1", "1"]}}, "explicit_paddings": {"list": {}}, "leakyrelu_alpha": {"f": 0.2}, "padding": {"s": "U0FNRQ=="}, "T": {"type": "DT_FLOAT"}}}, {"name": "decoder/L4/estimator/build_estimator/disp-4/LeakyRelu", "op": "_FusedConv2D", "input": ["decoder/L4/estimator/build_estimator/disp-3/LeakyRelu", "decoder/L4/estimator/build_estimator/disp-4/weights", "decoder/L4/estimator/build_estimator/disp-4/biases"], "device": "/device:CPU:0", "attr": {"fused_ops": {"list": {"s": ["Qmlhc0FkZA==", "TGVha3lSZWx1"]}}, "epsilon": {"f": 0.0}, "num_args": {"i": "1"}, "use_cudnn_on_gpu": {"b": true}, "dilations": {"list": {"i": ["1", "1", "1", "1"]}}, "strides": {"list": {"i": ["1", "1", "1", "1"]}}, "leakyrelu_alpha": {"f": 0.2}, "explicit_paddings": {"list": {}}, "data_format": {"s": "TkhXQw=="}, "padding": {"s": "U0FNRQ=="}, "T": {"type": "DT_FLOAT"}}}, {"name": "decoder/L4/estimator/build_estimator/disp-5/LeakyRelu", "op": "_FusedConv2D", "input": ["decoder/L4/estimator/build_estimator/disp-4/LeakyRelu", "decoder/L4/estimator/build_estimator/disp-5/weights", "decoder/L4/estimator/build_estimator/disp-5/biases"], "device": "/device:CPU:0", "attr": {"dilations": {"list": {"i": ["1", "1", "1", "1"]}}, "explicit_paddings": {"list": {}}, "leakyrelu_alpha": {"f": 0.2}, "T": {"type": "DT_FLOAT"}, "num_args": {"i": "1"}, "padding": {"s": "U0FNRQ=="}, "data_format": {"s": "TkhXQw=="}, "strides": {"list": {"i": ["1", "1", "1", "1"]}}, "use_cudnn_on_gpu": {"b": true}, "fused_ops": {"list": {"s": ["Qmlhc0FkZA==", "TGVha3lSZWx1"]}}, "epsilon": {"f": 0.0}}}, {"name": "decoder/L4/estimator/build_estimator/disp-6/LeakyRelu", "op": "_FusedConv2D", "input": ["decoder/L4/estimator/build_estimator/disp-5/LeakyRelu", "decoder/L4/estimator/build_estimator/disp-6/weights", "decoder/L4/estimator/build_estimator/disp-6/biases"], "device": "/device:CPU:0", "attr": {"num_args": {"i": "1"}, "data_format": {"s": "TkhXQw=="}, "fused_ops": {"list": {"s": ["Qmlhc0FkZA==", "TGVha3lSZWx1"]}}, "T": {"type": "DT_FLOAT"}, "explicit_paddings": {"list": {}}, "use_cudnn_on_gpu": {"b": true}, "dilations": {"list": {"i": ["1", "1", "1", "1"]}}, "strides": {"list": {"i": ["1", "1", "1", "1"]}}, "epsilon": {"f": 0.0}, "padding": {"s": "U0FNRQ=="}, "leakyrelu_alpha": {"f": 0.2}}}, {"name": "decoder/L4/upsampler/bilinear_upsampling_by_convolution/resize/ResizeBilinear", "op": "ResizeBilinear", "input": ["decoder/L4/estimator/build_estimator/disp-6/LeakyRelu", "decoder/L4/upsampler/bilinear_upsampling_by_convolution/resize/size"], "attr": {"T": {"type": "DT_FLOAT"}, "half_pixel_centers": {"b": false}, "align_corners": {"b": false}}}, {"name": "decoder/L4/upsampler/bilinear_upsampling_by_convolution/LeakyRelu", "op": "_FusedConv2D", "input": ["decoder/L4/upsampler/bilinear_upsampling_by_convolution/resize/ResizeBilinear", "decoder/L4/upsampler/bilinear_upsampling_by_convolution/weights", "decoder/L4/upsampler/bilinear_upsampling_by_convolution/biases"], "device": "/device:CPU:0", "attr": {"padding": {"s": "U0FNRQ=="}, "epsilon": {"f": 0.0}, "dilations": {"list": {"i": ["1", "1", "1", "1"]}}, "explicit_paddings": {"list": {}}, "use_cudnn_on_gpu": {"b": true}, "strides": {"list": {"i": ["1", "1", "1", "1"]}}, "fused_ops": {"list": {"s": ["Qmlhc0FkZA==", "TGVha3lSZWx1"]}}, "leakyrelu_alpha": {"f": 0.2}, "data_format": {"s": "TkhXQw=="}, "num_args": {"i": "1"}, "T": {"type": "DT_FLOAT"}}}, {"name": "decoder/L3/estimator/build_estimator/concat", "op": "ConcatV2", "input": ["encoder/conv3b/LeakyRelu", "decoder/L4/upsampler/bilinear_upsampling_by_convolution/LeakyRelu", "decoder/L3/estimator/build_estimator/concat/axis"], "attr": {"Tidx": {"type": "DT_INT32"}, "T": {"type": "DT_FLOAT"}, "N": {"i": "2"}}}, {"name": "decoder/L3/estimator/build_estimator/disp-3/LeakyRelu", "op": "_FusedConv2D", "input": ["decoder/L3/estimator/build_estimator/concat", "decoder/L3/estimator/build_estimator/disp-3/weights", "decoder/L3/estimator/build_estimator/disp-3/biases"], "device": "/device:CPU:0", "attr": {"leakyrelu_alpha": {"f": 0.2}, "data_format": {"s": "TkhXQw=="}, "num_args": {"i": "1"}, "epsilon": {"f": 0.0}, "padding": {"s": "U0FNRQ=="}, "fused_ops": {"list": {"s": ["Qmlhc0FkZA==", "TGVha3lSZWx1"]}}, "use_cudnn_on_gpu": {"b": true}, "T": {"type": "DT_FLOAT"}, "dilations": {"list": {"i": ["1", "1", "1", "1"]}}, "strides": {"list": {"i": ["1", "1", "1", "1"]}}, "explicit_paddings": {"list": {}}}}, {"name": "decoder/L3/estimator/build_estimator/disp-4/LeakyRelu", "op": "_FusedConv2D", "input": ["decoder/L3/estimator/build_estimator/disp-3/LeakyRelu", "decoder/L3/estimator/build_estimator/disp-4/weights", "decoder/L3/estimator/build_estimator/disp-4/biases"], "device": "/device:CPU:0", "attr": {"leakyrelu_alpha": {"f": 0.2}, "fused_ops": {"list": {"s": ["Qmlhc0FkZA==", "TGVha3lSZWx1"]}}, "num_args": {"i": "1"}, "T": {"type": "DT_FLOAT"}, "padding": {"s": "U0FNRQ=="}, "data_format": {"s": "TkhXQw=="}, "use_cudnn_on_gpu": {"b": true}, "explicit_paddings": {"list": {}}, "dilations": {"list": {"i": ["1", "1", "1", "1"]}}, "strides": {"list": {"i": ["1", "1", "1", "1"]}}, "epsilon": {"f": 0.0}}}, {"name": "decoder/L3/estimator/build_estimator/disp-5/LeakyRelu", "op": "_FusedConv2D", "input": ["decoder/L3/estimator/build_estimator/disp-4/LeakyRelu", "decoder/L3/estimator/build_estimator/disp-5/weights", "decoder/L3/estimator/build_estimator/disp-5/biases"], "device": "/device:CPU:0", "attr": {"epsilon": {"f": 0.0}, "T": {"type": "DT_FLOAT"}, "dilations": {"list": {"i": ["1", "1", "1", "1"]}}, "explicit_paddings": {"list": {}}, "padding": {"s": "U0FNRQ=="}, "leakyrelu_alpha": {"f": 0.2}, "num_args": {"i": "1"}, "strides": {"list": {"i": ["1", "1", "1", "1"]}}, "fused_ops": {"list": {"s": ["Qmlhc0FkZA==", "TGVha3lSZWx1"]}}, "data_format": {"s": "TkhXQw=="}, "use_cudnn_on_gpu": {"b": true}}}, {"name": "decoder/L3/estimator/build_estimator/disp-6/LeakyRelu", "op": "_FusedConv2D", "input": ["decoder/L3/estimator/build_estimator/disp-5/LeakyRelu", "decoder/L3/estimator/build_estimator/disp-6/weights", "decoder/L3/estimator/build_estimator/disp-6/biases"], "device": "/device:CPU:0", "attr": {"leakyrelu_alpha": {"f": 0.2}, "data_format": {"s": "TkhXQw=="}, "num_args": {"i": "1"}, "epsilon": {"f": 0.0}, "fused_ops": {"list": {"s": ["Qmlhc0FkZA==", "TGVha3lSZWx1"]}}, "padding": {"s": "U0FNRQ=="}, "T": {"type": "DT_FLOAT"}, "use_cudnn_on_gpu": {"b": true}, "strides": {"list": {"i": ["1", "1", "1", "1"]}}, "dilations": {"list": {"i": ["1", "1", "1", "1"]}}, "explicit_paddings": {"list": {}}}}, {"name": "decoder/L3/upsampler/bilinear_upsampling_by_convolution/resize/ResizeBilinear", "op": "ResizeBilinear", "input": ["decoder/L3/estimator/build_estimator/disp-6/LeakyRelu", "decoder/L3/upsampler/bilinear_upsampling_by_convolution/resize/size"], "attr": {"half_pixel_centers": {"b": false}, "T": {"type": "DT_FLOAT"}, "align_corners": {"b": false}}}, {"name": "decoder/L3/upsampler/bilinear_upsampling_by_convolution/LeakyRelu", "op": "_FusedConv2D", "input": ["decoder/L3/upsampler/bilinear_upsampling_by_convolution/resize/ResizeBilinear", "decoder/L3/upsampler/bilinear_upsampling_by_convolution/weights", "decoder/L3/upsampler/bilinear_upsampling_by_convolution/biases"], "device": "/device:CPU:0", "attr": {"num_args": {"i": "1"}, "leakyrelu_alpha": {"f": 0.2}, "data_format": {"s": "TkhXQw=="}, "T": {"type": "DT_FLOAT"}, "epsilon": {"f": 0.0}, "use_cudnn_on_gpu": {"b": true}, "fused_ops": {"list": {"s": ["Qmlhc0FkZA==", "TGVha3lSZWx1"]}}, "strides": {"list": {"i": ["1", "1", "1", "1"]}}, "padding": {"s": "U0FNRQ=="}, "dilations": {"list": {"i": ["1", "1", "1", "1"]}}, "explicit_paddings": {"list": {}}}}, {"name": "decoder/L2/estimator/build_estimator/concat", "op": "ConcatV2", "input": ["encoder/conv2b/LeakyRelu", "decoder/L3/upsampler/bilinear_upsampling_by_convolution/LeakyRelu", "decoder/L2/estimator/build_estimator/concat/axis"], "attr": {"Tidx": {"type": "DT_INT32"}, "T": {"type": "DT_FLOAT"}, "N": {"i": "2"}}}, {"name": "decoder/L2/estimator/build_estimator/disp-3/LeakyRelu", "op": "_FusedConv2D", "input": ["decoder/L2/estimator/build_estimator/concat", "decoder/L2/estimator/build_estimator/disp-3/weights", "decoder/L2/estimator/build_estimator/disp-3/biases"], "device": "/device:CPU:0", "attr": {"T": {"type": "DT_FLOAT"}, "use_cudnn_on_gpu": {"b": true}, "dilations": {"list": {"i": ["1", "1", "1", "1"]}}, "padding": {"s": "U0FNRQ=="}, "data_format": {"s": "TkhXQw=="}, "explicit_paddings": {"list": {}}, "leakyrelu_alpha": {"f": 0.2}, "fused_ops": {"list": {"s": ["Qmlhc0FkZA==", "TGVha3lSZWx1"]}}, "num_args": {"i": "1"}, "epsilon": {"f": 0.0}, "strides": {"list": {"i": ["1", "1", "1", "1"]}}}}, {"name": "decoder/L2/estimator/build_estimator/disp-4/LeakyRelu", "op": "_FusedConv2D", "input": ["decoder/L2/estimator/build_estimator/disp-3/LeakyRelu", "decoder/L2/estimator/build_estimator/disp-4/weights", "decoder/L2/estimator/build_estimator/disp-4/biases"], "device": "/device:CPU:0", "attr": {"dilations": {"list": {"i": ["1", "1", "1", "1"]}}, "explicit_paddings": {"list": {}}, "padding": {"s": "U0FNRQ=="}, "num_args": {"i": "1"}, "leakyrelu_alpha": {"f": 0.2}, "fused_ops": {"list": {"s": ["Qmlhc0FkZA==", "TGVha3lSZWx1"]}}, "data_format": {"s": "TkhXQw=="}, "strides": {"list": {"i": ["1", "1", "1", "1"]}}, "epsilon": {"f": 0.0}, "use_cudnn_on_gpu": {"b": true}, "T": {"type": "DT_FLOAT"}}}, {"name": "decoder/L2/estimator/build_estimator/disp-5/LeakyRelu", "op": "_FusedConv2D", "input": ["decoder/L2/estimator/build_estimator/disp-4/LeakyRelu", "decoder/L2/estimator/build_estimator/disp-5/weights", "decoder/L2/estimator/build_estimator/disp-5/biases"], "device": "/device:CPU:0", "attr": {"data_format": {"s": "TkhXQw=="}, "strides": {"list": {"i": ["1", "1", "1", "1"]}}, "fused_ops": {"list": {"s": ["Qmlhc0FkZA==", "TGVha3lSZWx1"]}}, "epsilon": {"f": 0.0}, "T": {"type": "DT_FLOAT"}, "use_cudnn_on_gpu": {"b": true}, "dilations": {"list": {"i": ["1", "1", "1", "1"]}}, "leakyrelu_alpha": {"f": 0.2}, "padding": {"s": "U0FNRQ=="}, "num_args": {"i": "1"}, "explicit_paddings": {"list": {}}}}, {"name": "decoder/L2/estimator/build_estimator/disp-6/LeakyRelu", "op": "_FusedConv2D", "input": ["decoder/L2/estimator/build_estimator/disp-5/LeakyRelu", "decoder/L2/estimator/build_estimator/disp-6/weights", "decoder/L2/estimator/build_estimator/disp-6/biases"], "device": "/device:CPU:0", "attr": {"epsilon": {"f": 0.0}, "strides": {"list": {"i": ["1", "1", "1", "1"]}}, "fused_ops": {"list": {"s": ["Qmlhc0FkZA==", "TGVha3lSZWx1"]}}, "use_cudnn_on_gpu": {"b": true}, "dilations": {"list": {"i": ["1", "1", "1", "1"]}}, "explicit_paddings": {"list": {}}, "leakyrelu_alpha": {"f": 0.2}, "T": {"type": "DT_FLOAT"}, "data_format": {"s": "TkhXQw=="}, "padding": {"s": "U0FNRQ=="}, "num_args": {"i": "1"}}}, {"name": "decoder/L2/upsampler/bilinear_upsampling_by_convolution/resize/ResizeBilinear", "op": "ResizeBilinear", "input": ["decoder/L2/estimator/build_estimator/disp-6/LeakyRelu", "decoder/L2/upsampler/bilinear_upsampling_by_convolution/resize/size"], "attr": {"align_corners": {"b": false}, "T": {"type": "DT_FLOAT"}, "half_pixel_centers": {"b": false}}}, {"name": "decoder/L2/upsampler/bilinear_upsampling_by_convolution/LeakyRelu", "op": "_FusedConv2D", "input": ["decoder/L2/upsampler/bilinear_upsampling_by_convolution/resize/ResizeBilinear", "decoder/L2/upsampler/bilinear_upsampling_by_convolution/weights", "decoder/L2/upsampler/bilinear_upsampling_by_convolution/biases"], "device": "/device:CPU:0", "attr": {"data_format": {"s": "TkhXQw=="}, "num_args": {"i": "1"}, "strides": {"list": {"i": ["1", "1", "1", "1"]}}, "epsilon": {"f": 0.0}, "dilations": {"list": {"i": ["1", "1", "1", "1"]}}, "explicit_paddings": {"list": {}}, "padding": {"s": "U0FNRQ=="}, "use_cudnn_on_gpu": {"b": true}, "T": {"type": "DT_FLOAT"}, "fused_ops": {"list": {"s": ["Qmlhc0FkZA==", "TGVha3lSZWx1"]}}, "leakyrelu_alpha": {"f": 0.2}}}, {"name": "decoder/L1/estimator/build_estimator/concat", "op": "ConcatV2", "input": ["encoder/conv1b/LeakyRelu", "decoder/L2/upsampler/bilinear_upsampling_by_convolution/LeakyRelu", "decoder/L1/estimator/build_estimator/concat/axis"], "attr": {"Tidx": {"type": "DT_INT32"}, "T": {"type": "DT_FLOAT"}, "N": {"i": "2"}}}, {"name": "decoder/L1/estimator/build_estimator/disp-3/LeakyRelu", "op": "_FusedConv2D", "input": ["decoder/L1/estimator/build_estimator/concat", "decoder/L1/estimator/build_estimator/disp-3/weights", "decoder/L1/estimator/build_estimator/disp-3/biases"], "device": "/device:CPU:0", "attr": {"fused_ops": {"list": {"s": ["Qmlhc0FkZA==", "TGVha3lSZWx1"]}}, "data_format": {"s": "TkhXQw=="}, "explicit_paddings": {"list": {}}, "leakyrelu_alpha": {"f": 0.2}, "num_args": {"i": "1"}, "strides": {"list": {"i": ["1", "1", "1", "1"]}}, "epsilon": {"f": 0.0}, "use_cudnn_on_gpu": {"b": true}, "T": {"type": "DT_FLOAT"}, "dilations": {"list": {"i": ["1", "1", "1", "1"]}}, "padding": {"s": "U0FNRQ=="}}}, {"name": "decoder/L1/estimator/build_estimator/disp-4/LeakyRelu", "op": "_FusedConv2D", "input": ["decoder/L1/estimator/build_estimator/disp-3/LeakyRelu", "decoder/L1/estimator/build_estimator/disp-4/weights", "decoder/L1/estimator/build_estimator/disp-4/biases"], "device": "/device:CPU:0", "attr": {"leakyrelu_alpha": {"f": 0.2}, "epsilon": {"f": 0.0}, "T": {"type": "DT_FLOAT"}, "num_args": {"i": "1"}, "padding": {"s": "U0FNRQ=="}, "strides": {"list": {"i": ["1", "1", "1", "1"]}}, "data_format": {"s": "TkhXQw=="}, "explicit_paddings": {"list": {}}, "fused_ops": {"list": {"s": ["Qmlhc0FkZA==", "TGVha3lSZWx1"]}}, "use_cudnn_on_gpu": {"b": true}, "dilations": {"list": {"i": ["1", "1", "1", "1"]}}}}, {"name": "decoder/L1/estimator/build_estimator/disp-5/LeakyRelu", "op": "_FusedConv2D", "input": ["decoder/L1/estimator/build_estimator/disp-4/LeakyRelu", "decoder/L1/estimator/build_estimator/disp-5/weights", "decoder/L1/estimator/build_estimator/disp-5/biases"], "device": "/device:CPU:0", "attr": {"epsilon": {"f": 0.0}, "padding": {"s": "U0FNRQ=="}, "use_cudnn_on_gpu": {"b": true}, "strides": {"list": {"i": ["1", "1", "1", "1"]}}, "dilations": {"list": {"i": ["1", "1", "1", "1"]}}, "num_args": {"i": "1"}, "T": {"type": "DT_FLOAT"}, "explicit_paddings": {"list": {}}, "leakyrelu_alpha": {"f": 0.2}, "data_format": {"s": "TkhXQw=="}, "fused_ops": {"list": {"s": ["Qmlhc0FkZA==", "TGVha3lSZWx1"]}}}}, {"name": "decoder/L1/estimator/build_estimator/disp-6/LeakyRelu", "op": "_FusedConv2D", "input": ["decoder/L1/estimator/build_estimator/disp-5/LeakyRelu", "decoder/L1/estimator/build_estimator/disp-6/weights", "decoder/L1/estimator/build_estimator/disp-6/biases"], "device": "/device:CPU:0", "attr": {"num_args": {"i": "1"}, "strides": {"list": {"i": ["1", "1", "1", "1"]}}, "data_format": {"s": "TkhXQw=="}, "fused_ops": {"list": {"s": ["Qmlhc0FkZA==", "TGVha3lSZWx1"]}}, "epsilon": {"f": 0.0}, "T": {"type": "DT_FLOAT"}, "use_cudnn_on_gpu": {"b": true}, "explicit_paddings": {"list": {}}, "leakyrelu_alpha": {"f": 0.2}, "padding": {"s": "U0FNRQ=="}, "dilations": {"list": {"i": ["1", "1", "1", "1"]}}}}, {"name": "decoder/L1/estimator/get_disp/BiasAdd", "op": "_FusedConv2D", "input": ["decoder/L1/estimator/build_estimator/disp-6/LeakyRelu", "decoder/L1/estimator/get_disp/weights", "decoder/L1/estimator/get_disp/biases"], "device": "/device:CPU:0", "attr": {"fused_ops": {"list": {"s": ["Qmlhc0FkZA=="]}}, "T": {"type": "DT_FLOAT"}, "padding": {"s": "U0FNRQ=="}, "use_cudnn_on_gpu": {"b": true}, "strides": {"list": {"i": ["1", "1", "1", "1"]}}, "dilations": {"list": {"i": ["1", "1", "1", "1"]}}, "explicit_paddings": {"list": {}}, "data_format": {"s": "TkhXQw=="}, "num_args": {"i": "1"}, "epsilon": {"f": 0.0}}}, {"name": "decoder/half/resize/ResizeBilinear", "op": "ResizeBilinear", "input": ["decoder/L1/estimator/get_disp/BiasAdd", "decoder/half/resize/size"], "attr": {"half_pixel_centers": {"b": false}, "T": {"type": "DT_FLOAT"}, "align_corners": {"b": false}}}, {"name": "Relu", "op": "Relu", "input": ["decoder/half/resize/ResizeBilinear"], "attr": {"T": {"type": "DT_FLOAT"}}}, {"name": "Max", "op": "Max", "input": ["Relu", "Const_1"], "attr": {"keep_dims": {"b": false}, "Tidx": {"type": "DT_INT32"}, "T": {"type": "DT_FLOAT"}}}, {"name": "Min", "op": "Min", "input": ["Relu", "Const"], "attr": {"Tidx": {"type": "DT_INT32"}, "T": {"type": "DT_FLOAT"}, "keep_dims": {"b": false}}}, {"name": "sub_1", "op": "Sub", "input": ["Max", "Min"], "attr": {"T": {"type": "DT_FLOAT"}}}, {"name": "sub", "op": "Sub", "input": ["Relu", "Min"], "attr": {"T": {"type": "DT_FLOAT"}}}, {"name": "truediv", "op": "RealDiv", "input": ["sub", "sub_1"], "attr": {"T": {"type": "DT_FLOAT"}}}], "library": {}, "versions": {"producer": 808}}, "weightsManifest": [{"paths": ["group1-shard1of2.bin", "group1-shard2of2.bin"], "weights": [{"name": "Const_1", "shape": [4], "dtype": "int32"}, {"name": "encoder/conv1a/weights", "shape": [3, 3, 3, 16], "dtype": "float32"}, {"name": "decoder/L1/estimator/build_estimator/disp-4/biases", "shape": [64], "dtype": "float32"}, {"name": "encoder/conv1a/biases", "shape": [16], "dtype": "float32"}, {"name": "encoder/conv1b/weights", "shape": [3, 3, 16, 16], "dtype": "float32"}, {"name": "decoder/L3/estimator/build_estimator/disp-5/weights", "shape": [3, 3, 64, 32], "dtype": "float32"}, {"name": "encoder/conv1b/biases", "shape": [16], "dtype": "float32"}, {"name": "encoder/conv2a/weights", "shape": [3, 3, 16, 32], "dtype": "float32"}, {"name": "decoder/L3/estimator/build_estimator/disp-5/biases", "shape": [32], "dtype": "float32"}, {"name": "encoder/conv2a/biases", "shape": [32], "dtype": "float32"}, {"name": "encoder/conv2b/weights", "shape": [3, 3, 32, 32], "dtype": "float32"}, {"name": "encoder/conv2b/biases", "shape": [32], "dtype": "float32"}, {"name": "decoder/L3/estimator/build_estimator/disp-6/weights", "shape": [3, 3, 32, 8], "dtype": "float32"}, {"name": "encoder/conv3a/weights", "shape": [3, 3, 32, 64], "dtype": "float32"}, {"name": "decoder/L1/estimator/build_estimator/disp-5/weights", "shape": [3, 3, 64, 32], "dtype": "float32"}, {"name": "encoder/conv3a/biases", "shape": [64], "dtype": "float32"}, {"name": "decoder/L3/estimator/build_estimator/disp-6/biases", "shape": [8], "dtype": "float32"}, {"name": "encoder/conv3b/weights", "shape": [3, 3, 64, 64], "dtype": "float32"}, {"name": "Const", "shape": [4], "dtype": "int32"}, {"name": "encoder/conv3b/biases", "shape": [64], "dtype": "float32"}, {"name": "encoder/conv4a/weights", "shape": [3, 3, 64, 96], "dtype": "float32"}, {"name": "decoder/L3/upsampler/bilinear_upsampling_by_convolution/resize/size", "shape": [2], "dtype": "int32"}, {"name": "encoder/conv4a/biases", "shape": [96], "dtype": "float32"}, {"name": "encoder/conv4b/weights", "shape": [3, 3, 96, 96], "dtype": "float32"}, {"name": "decoder/L3/upsampler/bilinear_upsampling_by_convolution/weights", "shape": [2, 2, 8, 8], "dtype": "float32"}, {"name": "encoder/conv4b/biases", "shape": [96], "dtype": "float32"}, {"name": "decoder/L1/estimator/build_estimator/disp-5/biases", "shape": [32], "dtype": "float32"}, {"name": "encoder/conv5a/weights", "shape": [3, 3, 96, 128], "dtype": "float32"}, {"name": "decoder/L3/upsampler/bilinear_upsampling_by_convolution/biases", "shape": [8], "dtype": "float32"}, {"name": "encoder/conv5a/biases", "shape": [128], "dtype": "float32"}, {"name": "encoder/conv5b/weights", "shape": [3, 3, 128, 128], "dtype": "float32"}, {"name": "encoder/conv5b/biases", "shape": [128], "dtype": "float32"}, {"name": "decoder/L2/estimator/build_estimator/concat/axis", "shape": [], "dtype": "int32"}, {"name": "encoder/conv6a/weights", "shape": [3, 3, 128, 192], "dtype": "float32"}, {"name": "encoder/conv6a/biases", "shape": [192], "dtype": "float32"}, {"name": "decoder/L2/estimator/build_estimator/disp-3/weights", "shape": [3, 3, 40, 96], "dtype": "float32"}, {"name": "encoder/conv6b/weights", "shape": [3, 3, 192, 192], "dtype": "float32"}, {"name": "encoder/conv6b/biases", "shape": [192], "dtype": "float32"}, {"name": "decoder/L2/estimator/build_estimator/disp-3/biases", "shape": [96], "dtype": "float32"}, {"name": "decoder/L6/estimator/build_estimator/disp-3/weights", "shape": [3, 3, 192, 96], "dtype": "float32"}, {"name": "decoder/L1/estimator/build_estimator/disp-6/weights", "shape": [3, 3, 32, 8], "dtype": "float32"}, {"name": "decoder/L6/estimator/build_estimator/disp-3/biases", "shape": [96], "dtype": "float32"}, {"name": "decoder/L6/estimator/build_estimator/disp-4/weights", "shape": [3, 3, 96, 64], "dtype": "float32"}, {"name": "decoder/L2/estimator/build_estimator/disp-4/weights", "shape": [3, 3, 96, 64], "dtype": "float32"}, {"name": "decoder/L6/estimator/build_estimator/disp-4/biases", "shape": [64], "dtype": "float32"}, {"name": "decoder/L6/estimator/build_estimator/disp-5/weights", "shape": [3, 3, 64, 32], "dtype": "float32"}, {"name": "decoder/L2/estimator/build_estimator/disp-4/biases", "shape": [64], "dtype": "float32"}, {"name": "decoder/L6/estimator/build_estimator/disp-5/biases", "shape": [32], "dtype": "float32"}, {"name": "decoder/L1/estimator/build_estimator/disp-6/biases", "shape": [8], "dtype": "float32"}, {"name": "decoder/L6/estimator/build_estimator/disp-6/weights", "shape": [3, 3, 32, 8], "dtype": "float32"}, {"name": "decoder/L6/estimator/build_estimator/disp-6/biases", "shape": [8], "dtype": "float32"}, {"name": "decoder/L2/estimator/build_estimator/disp-5/weights", "shape": [3, 3, 64, 32], "dtype": "float32"}, {"name": "decoder/L6/upsampler/bilinear_upsampling_by_convolution/resize/size", "shape": [2], "dtype": "int32"}, {"name": "decoder/L6/upsampler/bilinear_upsampling_by_convolution/weights", "shape": [2, 2, 8, 8], "dtype": "float32"}, {"name": "decoder/L6/upsampler/bilinear_upsampling_by_convolution/biases", "shape": [8], "dtype": "float32"}, {"name": "decoder/L2/estimator/build_estimator/disp-5/biases", "shape": [32], "dtype": "float32"}, {"name": "decoder/L5/estimator/build_estimator/concat/axis", "shape": [], "dtype": "int32"}, {"name": "decoder/L5/estimator/build_estimator/disp-3/weights", "shape": [3, 3, 136, 96], "dtype": "float32"}, {"name": "decoder/L5/estimator/build_estimator/disp-3/biases", "shape": [96], "dtype": "float32"}, {"name": "decoder/L5/estimator/build_estimator/disp-4/weights", "shape": [3, 3, 96, 64], "dtype": "float32"}, {"name": "decoder/L2/estimator/build_estimator/disp-6/weights", "shape": [3, 3, 32, 8], "dtype": "float32"}, {"name": "decoder/L5/estimator/build_estimator/disp-4/biases", "shape": [64], "dtype": "float32"}, {"name": "decoder/L1/estimator/get_disp/weights", "shape": [3, 3, 8, 1], "dtype": "float32"}, {"name": "decoder/L5/estimator/build_estimator/disp-5/weights", "shape": [3, 3, 64, 32], "dtype": "float32"}, {"name": "decoder/L2/estimator/build_estimator/disp-6/biases", "shape": [8], "dtype": "float32"}, {"name": "decoder/L5/estimator/build_estimator/disp-5/biases", "shape": [32], "dtype": "float32"}, {"name": "decoder/L5/estimator/build_estimator/disp-6/weights", "shape": [3, 3, 32, 8], "dtype": "float32"}, {"name": "decoder/L5/estimator/build_estimator/disp-6/biases", "shape": [8], "dtype": "float32"}, {"name": "decoder/L2/upsampler/bilinear_upsampling_by_convolution/resize/size", "shape": [2], "dtype": "int32"}, {"name": "decoder/L5/upsampler/bilinear_upsampling_by_convolution/resize/size", "shape": [2], "dtype": "int32"}, {"name": "decoder/L5/upsampler/bilinear_upsampling_by_convolution/weights", "shape": [2, 2, 8, 8], "dtype": "float32"}, {"name": "decoder/L5/upsampler/bilinear_upsampling_by_convolution/biases", "shape": [8], "dtype": "float32"}, {"name": "decoder/L2/upsampler/bilinear_upsampling_by_convolution/weights", "shape": [2, 2, 8, 8], "dtype": "float32"}, {"name": "decoder/L4/estimator/build_estimator/concat/axis", "shape": [], "dtype": "int32"}, {"name": "decoder/L4/estimator/build_estimator/disp-3/weights", "shape": [3, 3, 104, 96], "dtype": "float32"}, {"name": "decoder/L1/estimator/get_disp/biases", "shape": [1], "dtype": "float32"}, {"name": "decoder/L4/estimator/build_estimator/disp-3/biases", "shape": [96], "dtype": "float32"}, {"name": "decoder/L2/upsampler/bilinear_upsampling_by_convolution/biases", "shape": [8], "dtype": "float32"}, {"name": "decoder/L4/estimator/build_estimator/disp-4/weights", "shape": [3, 3, 96, 64], "dtype": "float32"}, {"name": "decoder/L4/estimator/build_estimator/disp-4/biases", "shape": [64], "dtype": "float32"}, {"name": "decoder/L4/estimator/build_estimator/disp-5/weights", "shape": [3, 3, 64, 32], "dtype": "float32"}, {"name": "decoder/L1/estimator/build_estimator/concat/axis", "shape": [], "dtype": "int32"}, {"name": "decoder/L4/estimator/build_estimator/disp-5/biases", "shape": [32], "dtype": "float32"}, {"name": "decoder/L4/estimator/build_estimator/disp-6/weights", "shape": [3, 3, 32, 8], "dtype": "float32"}, {"name": "decoder/L1/estimator/build_estimator/disp-3/weights", "shape": [3, 3, 24, 96], "dtype": "float32"}, {"name": "decoder/L4/estimator/build_estimator/disp-6/biases", "shape": [8], "dtype": "float32"}, {"name": "decoder/half/resize/size", "shape": [2], "dtype": "int32"}, {"name": "decoder/L4/upsampler/bilinear_upsampling_by_convolution/resize/size", "shape": [2], "dtype": "int32"}, {"name": "decoder/L4/upsampler/bilinear_upsampling_by_convolution/weights", "shape": [2, 2, 8, 8], "dtype": "float32"}, {"name": "decoder/L1/estimator/build_estimator/disp-3/biases", "shape": [96], "dtype": "float32"}, {"name": "decoder/L4/upsampler/bilinear_upsampling_by_convolution/biases", "shape": [8], "dtype": "float32"}, {"name": "decoder/L3/estimator/build_estimator/concat/axis", "shape": [], "dtype": "int32"}, {"name": "decoder/L3/estimator/build_estimator/disp-3/weights", "shape": [3, 3, 72, 96], "dtype": "float32"}, {"name": "decoder/L3/estimator/build_estimator/disp-3/biases", "shape": [96], "dtype": "float32"}, {"name": "decoder/L1/estimator/build_estimator/disp-4/weights", "shape": [3, 3, 96, 64], "dtype": "float32"}, {"name": "decoder/L3/estimator/build_estimator/disp-4/weights", "shape": [3, 3, 96, 64], "dtype": "float32"}, {"name": "decoder/L3/estimator/build_estimator/disp-4/biases", "shape": [64], "dtype": "float32"}]}]}